…
y often in transfer learning, when you train a network and want to fine- tune its behavior by training only the last few layers. Let’s consider the following model:\n\nmodel = Sequential() model.add(Dense(32, activation='relu', input_dim=784, name = 'input')) model.add(Dense(32, activation='relu', name = 'hidden1')) model.add(Dense(32, activation='relu', name = 'hidden2'))\n\nThe summary() call will give this output:\n\n_______________________________________________________________ Layer (type) Output Shape Param # =============================================================== input (Dense) (None, 32) 25120 _______________________________________________________________ hidden1 (Dense) (None, 32) 1056 _______________________________________________________________ hidden2 (Dense) (None, 32) 1056 ===============================================================\n\n52\n\nChapter 2\n\ntensorFlow: advanCed topiCs\n\nTotal params: 27,232 Trainable params: 27,232 Non-trainable params: 0 _______________________________________________________________\n\nSay you want to build a second model, keeping your trained weights in the input and hidden1 layers, but you want to substitute the hidden2 layer with a different layer (let’s say one with 16 neurons). You can easily do that in the following way:\n\nmodel2 = Sequential() for layer in model.layers[:-1]: model2.add(layer)\n\nThis gives you:\n\nLayer (type) Output Shape Param # =============================================================== input (Dense) (None, 32) 25120 _______________________________________________________________ hidden1 (Dense) (None, 32) 1056 =============================================================== Total params: 26,176 Trainable params: 26,176 Non-trainable params: 0 _______________________________________________________________\n\nAt this point, you can simply add a new layer with the following:\n\nmodel2.add(Dense(16, activation='relu', name = 'hidden3'))\n\n53\n\nChapter 2\n\ntensorFlow: advanCed topiCs\n\nIt has the following structure:\n\n_______________________________________________________________ Layer (type) Output Shape Param # =============================================================== input (Dense) (None, 32) 25120 _______________________________________________________________ hidden1 (Dense) (None, 32) 1056 _______________________________________________________________ hidden3 (Dense) (None, 16) 528 =============================================================== Total params: 26,704 Trainable params: 26,704 Non-trainable params: 0 _______________________________________________________________\n\nAfter that, remember to compile your model. For example, for a\n\nregression problem, your code may look like this:\n\nmodel.compile(loss='mse', optimizer='Adam', metrics=['mse'])\n\nKeras Callback 
…
g the CNN we used in the text. The numbers are the dimensions of the tensors produced by each layer.\n\nTo determine what kind of model we have, we simply use the model.summary() call. Let’s first create a model and then check it:\n\nmodel = baseline_model() model.summary()\n\n113\n\nChapter 3\n\nFundamentals oF Convolutional neural networks\n\nThe output (check the diagram form in Figure 3-15) is as follows:\n\n_________________________________________________________________ Layer (type) Output Shape Param # ================================================================= conv2d_1 (Conv2D) (None, 32, 24, 24) 832 _________________________________________________________________ max_pooling2d_1 (MaxPooling2 (None, 32, 12, 12) 0 _________________________________________________________________ dropout_1 (Dropout) (None, 32, 12, 12) 0 _________________________________________________________________ flatten_1 (Flatten) (None, 4608) 0 _________________________________________________________________ dense_1 (Dense) (None, 128) 589952 _________________________________________________________________ dense_2 (Dense) (None, 10) 1290 ================================================================= Total params: 592,074 Trainable params: 592,074 Non-trainable params: 0\n\nIn case you are wondering why the max-pooling layer produces tensors\n\nof dimensions 12x12, the reason is that since we haven’t specified the stride, Keras will take as a standard value the dimension of the filter, which in our case is 2x2. Having input ten
…
vation='relu')) model.add(MaxPooling2D(pool_size=(2, 2)))\n\nmodel.add(Conv2D(128, kernel_size=(3, 3), activation='relu')) model.add(MaxPooling2D(pool_size=(2, 2)))\n\nmodel.add(Flatten()) model.add(Dense(512, activation='relu')) model.add(Dense(1, activation='sigmoid'))\n\nmodel.compile(loss='binary_crossentropy', optimizer=optimizers.RMSprop(), metrics=['accuracy'])\n\n152\n\nChapter 4\n\nadvanCed Cnns and transfer Learning\n\nThis is a small network that has this structure:\n\nLayer (type) Output Shape Param # ============================================================== conv2d_3 (Conv2D) (None, 148, 148, 16) 448 ______________________________________________________________ max_pooling2d_3 (MaxPooling2 (None, 74, 74, 16) 0 ______________________________________________________________ conv2d_4 (Conv2D) (None, 72, 72, 64) 9280 ______________________________________________________________ max_pooling2d_4 (MaxPooling2 (None, 36, 36, 64) 0 ______________________________________________________________ conv2d_5 (Conv2D) (None, 34, 34, 128) 73856 ______________________________________________________________ max_pooling2d_5 (MaxPooling2 (None, 17, 17, 128) 0 ______________________________________________________________ flatten_1 (Flatten) (None, 36992) 0 ______________________________________________________________ dense_2 (Dense) (None, 512) 18940416 ______________________________________________________________ dense_3 (Dense) (None, 1) 513 ============================================================== Total params: 19,024,513 Trainable params: 19,024,513 Non-trainable params: 0 ______________________________________________________________\n\nIn Figure 4-8, you can see a schematic representation of the network to\n\ngive you an idea of the layer sequence.\n\n153\n\nChapter 4\n\nadvanCed Cnns and transfer Learning\n\nFigure 4-8. A s
…
ing window algorithm. To make things easier, I decided to use the MNIST dataset since you should know it very well at this point and it’s an easy dataset to use. As a first step, I built a CNN trained on the MNIST dataset that reached 99.3% accuracy. I then proceeded to save the model and the weights on disk. The CNN I used has the following structure:\n\n204\n\nChapter 6\n\nObjeCt ClassifiCatiOn: an intrOduCtiOn\n\n_______________________________________________________________ Layer (type) Output Shape Param # =============================================================== conv2d_1 (Conv2D) (None, 26, 26, 32) 320 _______________________________________________________________ conv2d_2 (Conv2D) (None, 24, 24, 64) 18496 _______________________________________________________________ max_pooling2d_1 (MaxPooling2 (None, 12, 12, 64) 0 _______________________________________________________________ dropout_1 (Dropout) (None, 12, 12, 64) 0 _______________________________________________________________ flatten_1 (Flatten) (None, 9216) 0 _______________________________________________________________ dense_1 (Dense) (None, 128) 1179776 _______________________________________________________________ dropout_2 (Dropout) (None, 128) 0 _______________________________________________________________ dense_2 (Dense) (None, 10) 1290 =============================================================== Total params: 1,199,882 Trainable params: 1,199,882 Non-trainable params: 0 _______________________________________________________________\n\nI then saved the model and weights using this code (we already\n\ndiscussed how to do this):\n\nmodel_json = model.to_json() with open(\"model_mnist.json\", \"w\") as json_file: json_file.writ
…
rs.Dense(64)) model.add(tf.keras.layers.Activation('relu')) model.add(tf.keras.layers.Dropout(0.5)) model.add(tf.keras.layers.Dense(8)) model.add(tf.keras.layers.Activation('sigmoid'))\n\nmodel.compile(loss='categorical_crossentropy', optimizer='adam', metrics=['accuracy']) return model\n\n254\n\nChapter 8\n\nhistology tissue ClassifiCation\n\nThis is a simple network, as you can check with the summary() function: _________________________________________________________________ Layer (type) Output Shape Param # ================================================================= conv2d (Conv2D) (None, 50, 50, 32) 896 _________________________________________________________________ activation (Activation) (None, 50, 50, 32) 0 _________________________________________________________________ max_pooling2d (MaxPooling2D) (None, 25, 25, 32) 0 _________________________________________________________________ conv2d_1 (Conv2D) (None, 8, 8, 64) 18496 _________________________________________________________________ activation_1 (Activation) (None, 8, 8, 64) 0 _________________________________________________________________ max_pooling2d_1 (MaxPooling2 (None, 4, 4, 64) 0 _________________________________________________________________ flatten (Flatten) (None, 1024) 0 _________________________________________________________________ dense (Dense) (None, 64) 65600 _________________________________________________________________ activation_2 (Activation) (None, 64) 0 _________________________________________________________________ dropout (Dropout) (None, 64) 0 _________________________________________________________________ dense_1 (Dense) (None, 8) 520 _________________________________________________________________ activation_3 (Activation) (None, 8) 0 ================================================================= Total params: 85,512 Trainable params: 85,512 Non-trainable params: 0 _________________________________________________________________\n\n255",
      "page_number": 258
    },
    {
      "number": 31,
      "title": "Segment 31 (pages 266-273)",
      "start_page": 266,
      "end_page": 273,
      "detection_method": "topic_boundary",
…
dataset: 82.7%\n\nThese results are not bad, and we don’t have much overfitting (you can\n\nsee in Figure 8-6 how accuracy and loss change with the epochs).\n\nFigure 8-6. Accuracy and loss function for the first network described in the text\n\n257\n\nChapter 8\n\nhistology tissue ClassifiCation\n\nLet’s move to a different model, which we will call v2. This one has a lot\n\nmore parameters than the previous one: _________________________________________________________________ Layer (type) Output Shape Param # ================================================================= conv2d (Conv2D) (None, 150, 150, 128) 9728 _________________________________________________________________ max_pooling2d (MaxPooling2D) (None, 75, 75, 128) 0 _________________________________________________________________ dropout (Dropout) (None, 75, 75, 128) 0 _________________________________________________________________ conv2d_1 (Conv2D) (None, 75, 75, 64) 73792 _________________________________________________________________ max_pooling2d_1 (MaxPooling2 (None, 37, 37, 64) 0 _________________________________________________________________ dropout_1 (Dropout) (None, 37, 37, 64) 0 _________________________________________________________________ conv2d_2 (Conv2D) (None, 37, 37, 64) 36928 _________________________________________________________________ max_pooling2d_2 (MaxPooling2 (None, 18, 18, 64) 0 _________________________________________________________________ dropout_2 (Dropout) (None, 18, 18, 64) 0 _________________________________________________________________ flatten (Flatten) (None, 20736) 0 _________________________________________________________________ dense (Dense) (None, 256) 5308672 _________________________________________________________________ dense_1 (Dense) (None, 64) 16448 _________________________________________________________________ dense_2 (Dense) (None, 32) 2080 _________________________________________________________________ dense_3 (Dense) (None, 8) 264 ================================================================= Total params: 5,447,912 Trainable params: 5,447,912 Non-trainable params: 0 _________________________________________________________________\n\n258\n\nChapter 8\n\nhistology tissue ClassifiCation\n\nAgain, you can find all the code in the GitHub repository. We will train\n\nit again, but this time, for time reasons, for 50 epochs 
…
 can clearly see the overfitting in Figure 8-7, looking at the plot of\n\nthe accuracies versus the number of epochs.\n\nFigure 8-7. Accuracies and loss functions versus the number of epochs for the v2 network\n\n259\n\nChapter 8\n\nhistology tissue ClassifiCation\n\nWe need to work a bit more to get some more reasonable results. Now let’s use a network with fewer parameters (in particular, with fewer kernels):\n\n_________________________________________________________________ Layer (type) Output Shape Param # ================================================================= conv2d (Conv2D) (None, 150, 150, 16) 448 _________________________________________________________________ conv2d_1 (Conv2D) (None, 150, 150, 16) 2320 _________________________________________________________________ conv2d_2 (Conv2D) (None, 150, 150, 16) 2320 _________________________________________________________________ dropout (Dropout) (None, 150, 150, 16) 0 _________________________________________________________________ max_pooling2d (MaxPooling2D) (None, 50, 50, 16) 0 _________________________________________________________________ conv2d_3 (Conv2D) (None, 50, 50, 32) 4640 _________________________________________________________________ conv2d_4 (Conv2D) (None, 50, 50, 32) 9248 _________________________________________________________________ conv2d_5 (Conv2D) (None, 50, 50, 32) 9248 _________________________________________________________________ dropout_1 (Dropout) (None, 50, 50, 32) 0 _________________________________________________________________ max_pooling2d_1 (MaxPooling2 (None, 16, 16, 32) 0 _________________________________________________________________ conv2d_6 (Conv2D) (None, 16, 16, 64) 18496 _________________________________________________________________ conv2d_7 (Conv2D) (None, 16, 16, 64) 36928 _________________________________________________________________ conv2d_8 (Conv2D) (None, 16, 16, 64) 36928 _________________________________________________________________ dropout_2 (Dropout) (None, 16, 16, 64) 0 _________________________________________________________________\n\n260\n\nChapter 8\n\nhistology tissue ClassifiCation\n\nmax_pooling2d_2 (MaxPooling2 (None, 5, 5, 64) 0 _________________________________________________________________ conv2d_9 (Conv2D) (None, 5, 5, 128) 73856 _________________________________________________________________ conv2d_10 (Conv2D) (None, 5, 5, 128) 147584 _________________________________________________________________ conv2d_11 (Conv2D) (None, 5, 5, 256) 295168 _________________________________________________________________ dropout_3 (Dropout) (None, 5, 5, 256) 0 _________________________________________________________________ max_pooling2d_3 (MaxPooling2 (None, 1, 1, 256) 0 _________________________________________________________________ global_max_pooling2d (Global (None, 256) 0 _________________________________________________________________ dense (Dense) (None, 8) 2056 ================================================================= Total params: 639,240 Trainable params: 639,240 Non-trainable params: 0\n\nWe will call this network v3. This time, the situation is not much better,\n\nas you can see in Figure 8-8.\n\nFigure 8-8. Accuracies and loss functions versus. the number of epochs for the v3 network.\n\n261\n\nChapter 8\n\nhistology tissue ClassifiCation\n
…
de_top=False parameter, since we want to remove the final dense layers and put our own in their place. We add a layer with 1024 neurons at the end:\n\nmodel.add(tf.keras.layers.Dense(1024, activation='relu'))\n\nThen we add an output layer with 8 as the softmax activation function\n\nfor classification:\n\nmodel.add(tf.keras.layers.Dense(8, activation='softmax'))\n\nThe summary() call will give you this overview:\n\n_________________________________________________________________ Layer (type) Output Shape Param # ================================================================= vgg16 (Model) (None, 4, 4, 512) 14714688 _________________________________________________________________ flatten (Flatten) (None, 8192) 0 _________________________________________________________________ dense (Dense) (None, 1024) 8389632 _________________________________________________________________ dropout (Dropout) (None, 1024) 0 _________________________________________________________________ dense_1 (Dense) (None, 8) 8200 ================================================================= Total params: 23,112,520 Trainable params: 15,477,256 Non-trainable params: 7,635,264 _________________________________________________________________\n\n263",
      "page_number": 266
    },
    {
      "number": 32,
      "title": "Segment 32 (pages 274-281)",
      "start_page": 274,
      "end_page": 281,
      "detection_method": "topic_boundary",
…
