…
 Note that batch normalization adds a small number of parameters, unlike dropout or maxpooling.\n\nFigure 15.10: Batch normalization\n\nWe can see that there are some non-trainable parameters. Let us make use of\n\nthe Learn prompting strategy (LIFE 3.1) to understand the calculations of non-trainable parameters.\n\n[Prompt]\n\nCan you please explain the calculation of 832 in the model summary?\n\n\"sequential_1\" ________________________________________________________________ Layer (type) Output Shape Param # ================================================================ conv2d_5 (Conv2D) (None, 30, 30, 32) 896\n\nbatch_normalization (Batch (None, 30, 30, 32) 128 Normalization)\n\nmax_pooling2d_3 (MaxPoolin (None, 15, 15, 32) 0 g2D)\n\nconv2d_6 (Conv2D) (None, 13, 13, 64) 18496\n\nbatch_normalization_1 (Bat (None, 13, 13, 64) 256 chNormalization)\n\nmax_pooling2d_4 (MaxPoolin (None, 6, 6, 64) 0 g2D)\n\nconv2d_7 (Conv2D) (None, 4, 4, 64) 36928\n\nconv2d_8 (Conv2D) (None, 4, 4, 128) 73856\n\nbatch_normalization_2 (Bat (None, 4, 4, 128) 512 chNormalization)\n\nmax_pooling2d_5 (MaxPoolin (None, 2, 2, 128) 0 g2D)\n\nconv2d_9 (Conv2D) (None, 2, 2, 128) 147584\n\nbatch_normalization_3 (Bat (None, 2, 2, 128) 512 chNormalization)\n\nmax_pooling2d_6 (MaxPoolin (None, 1, 1, 128) 0 g2D)\n\nflatten_1 (Flatten) (None, 128) 0\n\ndense_2 (Dense) (None, 64) 8256\n\nbatch_normalization_4 (Bat (None, 64) 256 chNormalization)\n\ndense_3 (Dense) (None, 10) 650\n\n================================================================ Total params: 288330 (1.10 MB) Trainable params: 287498 (1.10 MB) Non-trainable params: 832 (3.25 KB)\n\n[End of prompt]\n\nWe should receive a response like the following where ChatGPT understands the request and provides us with an explanation of the calculation of non-trainable parameters.\n\n[Prompt response]\n\nIn the model 
…
s us to implement the weight decay strategy without using the decay parameter in the optimizer. Let me know if you have any questions or if you need further assistance!\n\n[End of response]\n\nWe execute the code provided by ChatGPT and it runs perfectly fine. It\n\nprovides a model summary and the accuracy score has improved to 77%.\n\nModel Summary: Model: \"model_1\" ________________________________________________________________ Layer (type) Output Shape Param ================================================================ input_2 (InputLayer) [(None, 32, 32, 3)] 0\n\nconv2d_20 (Conv2D) (None, 32, 32, 64) 1792\n\nbatch_normalization_20 (Ba (None, 32, 32, 64) 256 tchNormalization)\n\nactivation_10 (Activation) (None, 32, 32, 64) 0\n\nconv2d_21 (Conv2D) (None, 32, 32, 64) 36928\n\nbatch_normalization_21 (Ba (None, 32, 32, 64) 256 tchNormalization)\n\nactivation_11 (Activation) (None, 32, 32, 64) 0\n\nconv2d_22 (Conv2D) (None, 32, 32, 64) 36928\n\nbatch_normalization_22 (Ba (None, 32, 32, 64) 256\n\ntchNormalization)\n\nadd_4 (Add) (None, 32, 32, 64) 0\n\nactivation_12 (Activation) (None, 32, 32, 64) 0\n\nconv2d_23 (Conv2D) (None, 32, 32, 64) 36928\n\nbatch_normalization_23 (Ba (None, 32, 32, 64) 256 tchNormalization)\n\nactivation_13 (Activation) (None, 32, 32, 64) 0\n\nconv2d_24 (Conv2D) (None, 32, 32, 64) 36928\n\nbatch_normalization_24 (Ba (None, 32, 32, 64) 256 tchNormalization)\n\nadd_5 (Add) (None, 32, 32, 64) 0\n\nactivation_14 (Activation) (None, 32, 32, 64) 0\n\nconv2d_25 (Conv2D) (None, 32, 32, 64) 36928\n\nbatch_normalization_25 (Ba (None, 32, 32, 64) 256 tchNormalization)\n\nactivation_15 (Activation) (None, 32, 32, 64) 0\n\nconv2d_26 (Conv2D) (None, 32, 32, 64) 36928\n\nbatch_normalization_26 (Ba (None, 32, 32, 64) 256 tchNormalization)\n\nadd_6 (Add) (None, 32, 32, 64) 0\n\nactivation_16 (Activation) (None, 32, 32, 64) 0\n\nconv2d_27 (Conv2D) (None, 32, 32, 64) 36928\n\nbatch_normalization_27 (Ba (None, 32, 32, 64) 256 tchNormalization)\n\nactivation_17 (Activation) (None, 32, 32, 64) 0\n\nconv2d_28 (Conv2D) (None, 32, 32, 64) 36928\n\nbatch_normalization_28 (Ba (None, 32, 32, 64) 256 tchNormalization)\n\nadd_7 (Add) (None, 32, 32, 64) 0\n\nactivation_18 (Activation) (None, 32, 32, 64) 0\n\nmax_pooling2d_9 (MaxPoolin (None, 16, 16, 64) 0 g2D)\n\nflatten_3 (Flatten) (None, 16384) 0\n\ndense_6 (Dense) (None, 512) 838912 ['flatten_3[0][0]']\n\nbatch_normalization_29 (Ba (None, 512) 2048 tchNormalization)\n\nactivation_19 (Activation) (None, 512) 0\n\ndense_7 (Dense) (None, 10) 5130\n\n================================================================ Total params: 8695818 (33.17 MB) Trainable params: 8693642 (33.16 MB) Non-trainable params: 2176 (8.50 KB)\n\nFigure 15.12: DavidNet – improved accuracy\n\nAssignment Increase the number of epochs for feature 3 when the dropout layer is added.\n\nChallenge Try to improve the model performance to greater than 80%. Feel free to use
…
