…
For ImageNet, the model classifies images into 1,000 different classes, so the output layer is a 1,000- element array. Let’s look at the output of model.summary() to understand which layer will be used as the bottleneck. For brevity, we’ve left out some of the middle layers here:\n\nModel: \"vgg19\" _________________________________________________________________ Layer (type) Output Shape Param # ================================================================= input_3 (InputLayer) [(None, 224, 224, 3)] 0 _________________________________________________________________ block1_conv1 (Conv2D) (None, 224, 224, 64) 1792 ...more layers here... _________________________________________________________________ block5_conv3 (Conv2D) (None, 14, 14, 512) 2359808 _________________________________________________________________ block5_conv4 (Conv2D) (None, 14, 14, 512) 2359808 _________________________________________________________________ block5_pool (MaxPooling2D) (None, 7, 7, 512) 0 _________________________________________________________________ flatten (Flatten) (None, 25088) 0 _________________________________________________________________ fc1 (Dense) (None, 4096) 102764544 _________________________________________________________________ fc2 (Dense) (None, 4096) 16781312 _________________________________________________________________ predictions (Dense) (None, 1000) 4097000 ================================================================= Total params: 143,667,240 Trainable params: 143,667,240 Non-trainable params: 0 _________________________________________________________________",
      "page_number": 198
    },
    {
      "number": 24,
      "title": "Segment 24 (pages 206-213)",
      "start_page": 206,
      "end_page": 213,
      "detection_method": "topic_boundary",
…
