…
. You really need GPUs to train the\nTransformer models. Also note that training can take hours even with GPUs. See sec-\ntion 11.5 for more information on using GPUs.\n A number of cryptic parameters appear here, but you don’t need to worry about\nthem. You can see the model structure when you run this command. The entire\nmodel dump is quite long, so we are omitting some intermediate layers in listing 8.1.\nIf you look carefully, you’ll see that the structure of the layers corresponds to the fig-\nures we showed earlier.\nTransformerModel(\n  (encoder): TransformerEncoder(\n    (embed_tokens): Embedding(16832, 512, padding_idx=1)\n    (embed_positions): SinusoidalPositionalEmbedding()\n    (layers): ModuleList(\n      (0): TransformerEncoderLayer(\n        (self_attn): MultiheadAttention(     \n          (out_proj): Linear(in_features=512, out_features=512, bias=True)\n        )\n        (self_attn_layer_norm): LayerNorm((512,), eps=1e-05, elementwise_\n         affine=True)\n        (fc1): Linear(in_features=512, out_features=2048, bias=True)   \n        (fc2): Linear(in_features=2048, out_features=512, bias=True)\n        (final_layer_norm): LayerNorm((512,), eps=1e-05, \nelementwise_affine=True)\n      )\n      ...\n      (5): TransformerEncoderLayer(\n        (self_attn): MultiheadAttention(\n          (out_proj): Linear(in_features=512, out_features=512, bias=True)\n        )\n        (self_attn_layer_norm): LayerNorm((512,), eps=1e-05, \nelementwise_affine=True)\n        (fc1): Linear(in_features=512, out_features=2048, bias=True)\n        (fc2): Linear(in_features=2048, out_features=512, bias=True)\n        (final_layer_norm): LayerNorm((512,), eps=1e-05, \nelementwise_affine=True)\n      )\n    )\n  )\n  (decoder): TransformerDecoder(\n    (embed_tokens): Embedding(11416, 512, padding_idx=1)\nListing 8.1\nTransformer model dump from Fairseq\nSelf-attention of \nthe encoder\nFeed-forward\nnetwork of\nthe encoder\n\n\n199\nTransformer and self-attention\n    (embed_positions): SinusoidalPositionalEmbedding()\n    (layers): ModuleList(\n      (0): TransformerDecoderLayer(\n        (self_attn): MultiheadAttention(   \n          (out_proj): Linear(in_features=512, out_features=512, bias=True)\n        )\n        (self_attn_layer_norm): LayerNorm((512,), eps=1e-05, \nelementwise_affine=True)\n        (encoder_attn): MultiheadAttention(    \n          (out_proj): Linear(in_features=512, out_features=512, bias=True)\n        )\n        (encoder_attn_layer_norm): LayerNorm((512,), eps=1e-05, elementwise_\n         affine=True)\n        (fc1): Linear(in_features=512, out_features=2048, bias=True)    \n        (fc2): Linear(in_features=2048, out_features=512, bias=True)\n        (final_layer_norm): LayerNorm((512,), eps=1e-05, \nelementwise_affine=True)\n      )\n      ...\n      (5): TransformerDecoderLayer(\n        (self_attn): MultiheadAttention(\n          (out_proj): Linear(in_features=512, out_features=512, bias=True)\n        )\n        (self_attn_layer_norm): LayerNorm((512,), eps=1e-05, \nelementwise_affine=True)\n        (encoder_attn): MultiheadAttention(\n          (out_proj): Linear(in_features=512, out_features=512, bias=True)\n        )\n        (encoder_attn_layer_norm): LayerNorm((512,), eps=1e-05, elementwise_\n         affine=True)\n        (fc1): Linear(in_features=512, out_features=2048, bias=True)\n        (fc2): Linear(in_features=2048, out_features=512, bias=True)\n        (final_layer_norm): LayerNorm((512,), eps=1e-05, \nelementwise_affine=True)\n      )\n    )\n  )\n)\nWhen I ran this, the validation loss converges after around epoch 30, at which point\nyou can stop the training. The result I got by translating the same set of Spanish sen-\ntences into English follows:\n¡ Buenos días !\nS-0     ¡ Buenos días !\nH-0     -0.0753164291381836     Good morning !\nP-0     -0.0532 -0.0063 -0.1782 -0
…
. You really need GPUs to train the\nTransformer models. Also note that training can take hours even with GPUs. See sec-\ntion 11.5 for more information on using GPUs.\n A number of cryptic parameters appear here, but you don’t need to worry about\nthem. You can see the model structure when you run this command. The entire\nmodel dump is quite long, so we are omitting some intermediate layers in listing 8.1.\nIf you look carefully, you’ll see that the structure of the layers corresponds to the fig-\nures we showed earlier.\nTransformerModel(\n  (encoder): TransformerEncoder(\n    (embed_tokens): Embedding(16832, 512, padding_idx=1)\n    (embed_positions): SinusoidalPositionalEmbedding()\n    (layers): ModuleList(\n      (0): TransformerEncoderLayer(\n        (self_attn): MultiheadAttention(     \n          (out_proj): Linear(in_features=512, out_features=512, bias=True)\n        )\n        (self_attn_layer_norm): LayerNorm((512,), eps=1e-05, elementwise_\n         affine=True)\n        (fc1): Linear(in_features=512, out_features=2048, bias=True)   \n        (fc2): Linear(in_features=2048, out_features=512, bias=True)\n        (final_layer_norm): LayerNorm((512,), eps=1e-05, \nelementwise_affine=True)\n      )\n      ...\n      (5): TransformerEncoderLayer(\n        (self_attn): MultiheadAttention(\n          (out_proj): Linear(in_features=512, out_features=512, bias=True)\n        )\n        (self_attn_layer_norm): LayerNorm((512,), eps=1e-05, \nelementwise_affine=True)\n        (fc1): Linear(in_features=512, out_features=2048, bias=True)\n        (fc2): Linear(in_features=2048, out_features=512, bias=True)\n        (final_layer_norm): LayerNorm((512,), eps=1e-05, \nelementwise_affine=True)\n      )\n    )\n  )\n  (decoder): TransformerDecoder(\n    (embed_tokens): Embedding(11416, 512, padding_idx=1)\nListing 8.1\nTransformer model dump from Fairseq\nSelf-attention of \nthe encoder\nFeed-forward\nnetwork of\nthe encoder\n",
      "content_length": 2351,
      "extraction_method": "PyMuPDF_fallback"
    },
    {
      "page_number": 219,
      "content": "199\nTransformer and self-attention\n    (embed_positions): SinusoidalPositionalEmbedding()\n    (layers): ModuleList(\n      (0): TransformerDecoderLayer(\n        (self_attn): MultiheadAttention(   \n          (out_proj): Linear(in_features=512, out_features=512, bias=True)\n        )\n        (self_attn_layer_norm): LayerNorm((512,), eps=1e-05, \nelementwise_affine=True)\n        (encoder_attn): MultiheadAttention(    \n          (out_proj): Linear(in_features=512, out_features=512, bias=True)\n        )\n        (encoder_attn_layer_norm): LayerNorm((512,), eps=1e-05, elementwise_\n         affine=True)\n        (fc1): Linear(in_features=512, out_features=2048, bias=True)    \n        (fc2): Linear(in_features=2048, out_features=512, bias=True)\n        (final_layer_norm): LayerNorm((512,), eps=1e-05, \nelementwise_affine=True)\n      )\n      ...\n      (5): TransformerDecoderLayer(\n        (self_attn): MultiheadAttention(\n          (out_proj): Linear(in_features=512, out_features=512, bias=True)\n        )\n        (self_attn_layer_norm): LayerNorm((512,), eps=1e-05, \nelementwise_affine=True)\n        (encoder_attn): MultiheadAttention(\n          (out_proj): Linear(in_features=512, out_features=512, bias=True)\n        )\n        (encoder_attn_layer_norm): LayerNorm((512,), eps=1e-05, elementwise_\n         affine=True)\n        (fc1): Linear(in_features=512, out_features=2048, bias=True)\n        (fc2): Linear(in_features=2048, out_features=512, bias=True)\n        (final_layer_norm): LayerNorm((512,), eps=1e-05, \nelementwise_affine=True)\n      )\n    )\n  )\n)\nWhen I ran this, the validation loss converges after around epoch 30, at which point\nyou can stop the training. The result I got by translating the same set of Spanish sen-\ntences into English follows:\n¡ Buenos días !\nS-0     ¡ Buenos días !\nH-0     -0.0753164291381836     Good morning !\nP-0     -0.0532 -0.0063 -0.1782 -0
…
